Model: "sequential"
_________________________________________________________________
 Layer (type)                Output Shape              Param #
=================================================================
 conv1d (Conv1D)             (None, 620, 64)           384
 batch_normalization (BatchN  (None, 620, 64)          256
 ormalization)
 re_lu (ReLU)                (None, 620, 64)           0
 max_pooling1d (MaxPooling1D  (None, 310, 64)          0
 )
 dropout (Dropout)           (None, 310, 64)           0
 conv1d_1 (Conv1D)           (None, 306, 64)           20544
 batch_normalization_1 (Batc  (None, 306, 64)          256
 hNormalization)
 re_lu_1 (ReLU)              (None, 306, 64)           0
 max_pooling1d_1 (MaxPooling  (None, 153, 64)          0
 1D)
 dropout_1 (Dropout)         (None, 153, 64)           0
 flatten (Flatten)           (None, 9792)              0
 dense (Dense)               (None, 3)                 29379
=================================================================
Total params: 50,819
Trainable params: 50,563
Non-trainable params: 256
_________________________________________________________________
Epoch 1/30
