Model: "sequential"
_________________________________________________________________
 Layer (type)                Output Shape              Param #
=================================================================
 conv1d (Conv1D)             (None, 984, 64)           384
 batch_normalization (BatchN  (None, 984, 64)          256
 ormalization)
 max_pooling1d (MaxPooling1D  (None, 492, 64)          0
 )
 dropout (Dropout)           (None, 492, 64)           0
 re_lu (ReLU)                (None, 492, 64)           0
 conv1d_1 (Conv1D)           (None, 488, 64)           20544
 batch_normalization_1 (Batc  (None, 488, 64)          256
 hNormalization)
 max_pooling1d_1 (MaxPooling  (None, 244, 64)          0
 1D)
 dropout_1 (Dropout)         (None, 244, 64)           0
 re_lu_1 (ReLU)              (None, 244, 64)           0
 conv1d_2 (Conv1D)           (None, 240, 32)           10272
 batch_normalization_2 (Batc  (None, 240, 32)          128
 hNormalization)
 max_pooling1d_2 (MaxPooling  (None, 120, 32)          0
 1D)
 dropout_2 (Dropout)         (None, 120, 32)           0
 re_lu_2 (ReLU)              (None, 120, 32)           0
 flatten (Flatten)           (None, 3840)              0
 dense (Dense)               (None, 32)                122912
 dropout_3 (Dropout)         (None, 32)                0
 activation (Activation)     (None, 32)                0
 dense_1 (Dense)             (None, 3)                 99
=================================================================
Total params: 154,851
Trainable params: 154,531
Non-trainable params: 320
_________________________________________________________________
Epoch 1/30



54/54 [==============================] - 12s 167ms/step - loss: 1.3472 - accuracy: 0.5232 - val_loss: 0.9705 - val_accuracy: 0.6976 - _timestamp: 1657130548.0000 - _runtime: 35.0000
…
