Model: "sequential"
_________________________________________________________________
 Layer (type)                Output Shape              Param #
=================================================================
 conv1d (Conv1D)             (None, 984, 64)           384
 batch_normalization (BatchN  (None, 984, 64)          256
 ormalization)
 max_pooling1d (MaxPooling1D  (None, 492, 64)          0
 )
 dropout (Dropout)           (None, 492, 64)           0
 re_lu (ReLU)                (None, 492, 64)           0
 conv1d_1 (Conv1D)           (None, 488, 64)           20544
 batch_normalization_1 (Batc  (None, 488, 64)          256
 hNormalization)
 max_pooling1d_1 (MaxPooling  (None, 244, 64)          0
 1D)
 dropout_1 (Dropout)         (None, 244, 64)           0
 re_lu_1 (ReLU)              (None, 244, 64)           0
 conv1d_2 (Conv1D)           (None, 240, 32)           10272
 batch_normalization_2 (Batc  (None, 240, 32)          128
 hNormalization)
 max_pooling1d_2 (MaxPooling  (None, 120, 32)          0
 1D)
 dropout_2 (Dropout)         (None, 120, 32)           0
 re_lu_2 (ReLU)              (None, 120, 32)           0
 flatten (Flatten)           (None, 3840)              0
 dense (Dense)               (None, 3)                 11523
=================================================================
Total params: 43,363
Trainable params: 43,043
Non-trainable params: 320
_________________________________________________________________
WARNING:tensorflow:From C:\Users\ASUS\AppData\Roaming\Python\Python39\site-packages\tensorflow\python\ops\nn_ops.py:5219: tensor_shape_from_node_def_name (from tensorflow.python.framework.graph_util_impl) is deprecated and will be removed in a future version.
…
