Model: "sequential"
_________________________________________________________________
 Layer (type)                Output Shape              Param #
=================================================================
 conv1d (Conv1D)             (None, 984, 64)           384
 batch_normalization (BatchN  (None, 984, 64)          256
 ormalization)
 re_lu (ReLU)                (None, 984, 64)           0
 max_pooling1d (MaxPooling1D  (None, 492, 64)          0
 )
 dropout (Dropout)           (None, 492, 64)           0
 conv1d_1 (Conv1D)           (None, 488, 64)           20544
 batch_normalization_1 (Batc  (None, 488, 64)          256
 hNormalization)
 re_lu_1 (ReLU)              (None, 488, 64)           0
 max_pooling1d_1 (MaxPooling  (None, 244, 64)          0
 1D)
 dropout_1 (Dropout)         (None, 244, 64)           0
 flatten (Flatten)           (None, 15616)             0
 dense (Dense)               (None, 3)                 46851
=================================================================
Total params: 68,291
Trainable params: 68,035
Non-trainable params: 256
_________________________________________________________________
Epoch 1/30

54/54 [==============================] - 6s 104ms/step - loss: 1.6078 - accuracy: 0.3383 - val_loss: 1.1566 - val_accuracy: 0.3286 - _timestamp: 1656695725.0000 - _runtime: 23.0000
Epoch 2/30
…
