Model: "sequential"
_________________________________________________________________
 Layer (type)                Output Shape              Param #
=================================================================
 conv1d (Conv1D)             (None, 984, 64)           384
 batch_normalization (BatchN  (None, 984, 64)          256
 ormalization)
 re_lu (ReLU)                (None, 984, 64)           0
 max_pooling1d (MaxPooling1D  (None, 492, 64)          0
 )
 dropout (Dropout)           (None, 492, 64)           0
 conv1d_1 (Conv1D)           (None, 488, 64)           20544
 batch_normalization_1 (Batc  (None, 488, 64)          256
 hNormalization)
 re_lu_1 (ReLU)              (None, 488, 64)           0
 max_pooling1d_1 (MaxPooling  (None, 244, 64)          0
 1D)
 dropout_1 (Dropout)         (None, 244, 64)           0
 flatten (Flatten)           (None, 15616)             0
 dense (Dense)               (None, 3)                 46851
=================================================================
Total params: 68,291
Trainable params: 68,035
Non-trainable params: 256
_________________________________________________________________
[34m[1mwandb[39m[22m: [33mWARNING[39m The save_model argument by default saves the model in the HDF5 format that cannot save custom objects like subclassed models and custom layers. This behavior will be deprecated in a future release in favor of the SavedModel format. Meanwhile, the HDF5 model is saved as W&B files and the SavedModel as W&B Artifacts.
…
